…
        (1): ResnetBlock(
          (norm1): PixelwiseNorm()
          (conv1): PartialConv2d(256, 256, kernel_size=(3, 3), stride=(1, 1), padding=(1, 1))
          (norm2): PixelwiseNorm()
          (conv2): PartialConv2d(256, 256, kernel_size=(3, 3), stride=(1, 1), padding=(1, 1))
          (dropout): Dropout(p=0.0, inplace=False)
          (act): LeakyReLU(negative_slope=0.2)
          (short): Identity()
        )
      )
      (attn): ModuleList(
        (0): TransformerEncoderLayer(
          (attn): MultiheadAttention(
            (dropout): Dropout(p=0.0, inplace=False)
            (to_q): Linear(in_features=256, out_features=256, bias=True)
            (to_k): Linear(in_features=256, out_features=256, bias=True)
            (to_v): Linear(in_features=256, out_features=256, bias=True)
            (to_out): Linear(in_features=256, out_features=256, bias=True)
          )
          (conv1): PartialConv2d(256, 2048, kernel_size=(1, 1), stride=(1, 1))
          (conv2): PartialConv2d(2048, 256, kernel_size=(1, 1), stride=(1, 1))
          (norm1): PixelwiseNorm()
          (norm2): PixelwiseNorm()
          (dropout): Dropout(p=0.0, inplace=False)
          (activation): GELU()
        )
        (1): TransformerEncoderLayer(
          (attn): MultiheadAttention(
            (dropout): Dropout(p=0.0, inplace=False)
            (to_q): Linear(in_features=256, out_features=256, bias=True)
            (to_k): Linear(in_features=256, out_features=256, bias=True)
            (to_v): Linear(in_features=256, out_features=256, bias=True)
            (to_out): Linear(in_features=256, out_features=256, bias=True)
          )
          (conv1): PartialConv2d(256, 2048, kernel_size=(1, 1), stride=(1, 1))
          (conv2): PartialConv2d(2048, 256, kernel_size=(1, 1), stride=(1, 1))
          (norm1): PixelwiseNorm()
          (norm2): PixelwiseNorm()
          (dropout): Dropout(p=0.0, inplace=False)
          (activation): GELU()
        )
      )
      (noise): ModuleList(
…
        (1): EqualConv2d(512, 512, 3, stride=2, padding=0)
        (2): FusedLeakyReLU()
      )
      (skip): ConvLayer(
        (0): Blur()
        (1): EqualConv2d(512, 512, 1, stride=2, padding=0)
      )
    )
  )
  (final_conv): ConvLayer(
    (0): EqualConv2d(513, 512, 3, stride=1, padding=1)
    (1): FusedLeakyReLU()
  )
  (final_linear): Sequential(
    (0): EqualLinear(8192, 512)
    (1): EqualLinear(512, 1)
  )
)[Network D] Total number of parameters : 19.049 MTransformer(
  (token_embed): PartialConv2d(512, 512, kernel_size=(1, 1), stride=(1, 1))
  (pos_embed): PositionEmbeddingLearned(
    (row_embed): Embedding(32, 512)
    (col_embed): Embedding(32, 512)
  )
  (drop): Dropout(p=0.0, inplace=False)
  (encoder_trans): TransformerEncoder(
    (layers): ModuleList(
      (0): TransformerEncoderLayer(
        (attn): MultiheadAttention(
          (dropout): Dropout(p=0.0, inplace=False)
          (to_q): Linear(in_features=512, out_features=512, bias=True)
          (to_k): Linear(in_features=512, out_features=512, bias=True)
          (to_v): Linear(in_features=512, out_features=512, bias=True)
          (to_out): Linear(in_features=512, out_features=512, bias=True)
        )
        (conv1): PartialConv2d(512, 2048, kernel_size=(1, 1), stride=(1, 1))
        (conv2): PartialConv2d(2048, 512, kernel_size=(1, 1), stride=(1, 1))
        (norm1): PixelwiseNorm()
        (norm2): PixelwiseNorm()
        (dropout): Dropout(p=0.0, inplace=False)
        (activation): GELU()
      )
      (1): TransformerEncoderLayer(
        (attn): MultiheadAttention(
          (dropout): Dropout(p=0.0, inplace=False)
          (to_q): Linear(in_features=512, out_features=512, bias=True)
          (to_k): Linear(in_features=512, out_features=512, bias=True)
          (to_v): Linear(in_features=512, out_features=512, bias=True)
          (to_out): Linear(in_features=512, out_features=512, bias=True)
        )
        (conv1): PartialConv2d(512, 2048, kernel_size=(1, 1), stride=(1, 1))
        (conv2): PartialConv2d(2048, 512, kernel_size=(1, 1), stride=(1, 1))
        (norm1): PixelwiseNorm()
        (norm2): PixelwiseNorm()
        (dropout): Dropout(p=0.0, inplace=False)
        (activation): GELU()
      )
      (2): TransformerEncoderLayer(
        (attn): MultiheadAttention(
          (dropout): Dropout(p=0.0, inplace=False)
          (to_q): Linear(in_features=512, out_features=512, bias=True)
          (to_k): Linear(in_features=512, out_features=512, bias=True)
          (to_v): Linear(in_features=512, out_features=512, bias=True)
          (to_out): Linear(in_features=512, out_features=512, bias=True)
        )
        (conv1): PartialConv2d(512, 2048, kernel_size=(1, 1), stride=(1, 1))
        (conv2): PartialConv2d(2048, 512, kernel_size=(1, 1), stride=(1, 1))
        (norm1): PixelwiseNorm()
        (norm2): PixelwiseNorm()
        (dropout): Dropout(p=0.0, inplace=False)
        (activation): GELU()
      )
      (3): TransformerEncoderLayer(
        (attn): MultiheadAttention(
          (dropout): Dropout(p=0.0, inplace=False)
          (to_q): Linear(in_features=512, out_features=512, bias=True)
          (to_k): Linear(in_features=512, out_features=512, bias=True)
          (to_v): Linear(in_features=512, out_features=512, bias=True)
          (to_out): Linear(in_features=512, out_features=512, bias=True)
        )
        (conv1): PartialConv2d(512, 2048, kernel_size=(1, 1), stride=(1, 1))
        (conv2): PartialConv2d(2048, 512, kernel_size=(1, 1), stride=(1, 1))
        (norm1): PixelwiseNorm()
        (norm2): PixelwiseNorm()
        (dropout): Dropout(p=0.0, inplace=False)
        (activation): GELU()
      )
      (4): TransformerEncoderLayer(
        (attn): MultiheadAttention(
          (dropout): Dropout(p=0.0, inplace=False)
          (to_q): Linear(in_features=512, out_features=512, bias=True)
          (to_k): Linear(in_features=512, out_features=512, bias=True)
          (to_v): Linear(in_features=512, out_features=512, bias=True)
          (to_out): Linear(in_features=512, out_features=512, bias=True)
        )
        (conv1): PartialConv2d(512, 2048, kernel_size=(1, 1), stride=(1, 1))
        (conv2): PartialConv2d(2048, 512, kernel_size=(1, 1), stride=(1, 1))
        (norm1): PixelwiseNorm()
        (norm2): PixelwiseNorm()
        (dropout): Dropout(p=0.0, inplace=False)
        (activation): GELU()
      )
      (5): TransformerEncoderLayer(
        (attn): MultiheadAttention(
          (dropout): Dropout(p=0.0, inplace=False)
          (to_q): Linear(in_features=512, out_features=512, bias=True)
          (to_k): Linear(in_features=512, out_features=512, bias=True)
          (to_v): Linear(in_features=512, out_features=512, bias=True)
          (to_out): Linear(in_features=512, out_features=512, bias=True)
        )
        (conv1): PartialConv2d(512, 2048, kernel_size=(1, 1), stride=(1, 1))
        (conv2): PartialConv2d(2048, 512, kernel_size=(1, 1), stride=(1, 1))
        (norm1): PixelwiseNorm()
        (norm2): PixelwiseNorm()
        (dropout): Dropout(p=0.0, inplace=False)
        (activation): GELU()
      )
      (6): TransformerEncoderLayer(
        (attn): MultiheadAttention(
          (dropout): Dropout(p=0.0, inplace=False)
          (to_q): Linear(in_features=512, out_features=512, bias=True)
          (to_k): Linear(in_features=512, out_features=512, bias=True)
          (to_v): Linear(in_features=512, out_features=512, bias=True)
          (to_out): Linear(in_features=512, out_features=512, bias=True)
        )
        (conv1): PartialConv2d(512, 2048, kernel_size=(1, 1), stride=(1, 1))
        (conv2): PartialConv2d(2048, 512, kernel_size=(1, 1), stride=(1, 1))
        (norm1): PixelwiseNorm()
        (norm2): PixelwiseNorm()
        (dropout): Dropout(p=0.0, inplace=False)
        (activation): GELU()
      )
      (7): TransformerEncoderLayer(
        (attn): MultiheadAttention(
          (dropout): Dropout(p=0.0, inplace=False)
          (to_q): Linear(in_features=512, out_features=512, bias=True)
          (to_k): Linear(in_features=512, out_features=512, bias=True)
          (to_v): Linear(in_features=512, out_features=512, bias=True)
          (to_out): Linear(in_features=512, out_features=512, bias=True)
        )
        (conv1): PartialConv2d(512, 2048, kernel_size=(1, 1), stride=(1, 1))
        (conv2): PartialConv2d(2048, 512, kernel_size=(1, 1), stride=(1, 1))
        (norm1): PixelwiseNorm()
        (norm2): PixelwiseNorm()
        (dropout): Dropout(p=0.0, inplace=False)
        (activation): GELU()
      )
      (8): TransformerEncoderLayer(
        (attn): MultiheadAttention(
          (dropout): Dropout(p=0.0, inplace=False)
          (to_q): Linear(in_features=512, out_features=512, bias=True)
          (to_k): Linear(in_features=512, out_features=512, bias=True)
          (to_v): Linear(in_features=512, out_features=512, bias=True)
          (to_out): Linear(in_features=512, out_features=512, bias=True)
        )
        (conv1): PartialConv2d(512, 2048, kernel_size=(1, 1), stride=(1, 1))
        (conv2): PartialConv2d(2048, 512, kernel_size=(1, 1), stride=(1, 1))
        (norm1): PixelwiseNorm()
        (norm2): PixelwiseNorm()
        (dropout): Dropout(p=0.0, inplace=False)
        (activation): GELU()
      )
      (9): TransformerEncoderLayer(
        (attn): MultiheadAttention(
          (dropout): Dropout(p=0.0, inplace=False)
          (to_q): Linear(in_features=512, out_features=512, bias=True)
          (to_k): Linear(in_features=512, out_features=512, bias=True)
          (to_v): Linear(in_features=512, out_features=512, bias=True)
          (to_out): Linear(in_features=512, out_features=512, bias=True)
        )
        (conv1): PartialConv2d(512, 2048, kernel_size=(1, 1), stride=(1, 1))
        (conv2): PartialConv2d(2048, 512, kernel_size=(1, 1), stride=(1, 1))
        (norm1): PixelwiseNorm()
        (norm2): PixelwiseNorm()
        (dropout): Dropout(p=0.0, inplace=False)
        (activation): GELU()
      )
      (10): TransformerEncoderLayer(
        (attn): MultiheadAttention(
          (dropout): Dropout(p=0.0, inplace=False)
          (to_q): Linear(in_features=512, out_features=512, bias=True)
          (to_k): Linear(in_features=512, out_features=512, bias=True)
          (to_v): Linear(in_features=512, out_features=512, bias=True)
          (to_out): Linear(in_features=512, out_features=512, bias=True)
        )
        (conv1): PartialConv2d(512, 2048, kernel_size=(1, 1), stride=(1, 1))
        (conv2): PartialConv2d(2048, 512, kernel_size=(1, 1), stride=(1, 1))
        (norm1): PixelwiseNorm()
        (norm2): PixelwiseNorm()
        (dropout): Dropout(p=0.0, inplace=False)
        (activation): GELU()
      )
      (11): TransformerEncoderLayer(
        (attn): MultiheadAttention(
          (dropout): Dropout(p=0.0, inplace=False)
          (to_q): Linear(in_features=512, out_features=512, bias=True)
          (to_k): Linear(in_features=512, out_features=512, bias=True)
          (to_v): Linear(in_features=512, out_features=512, bias=True)
          (to_out): Linear(in_features=512, out_features=512, bias=True)
        )
        (conv1): PartialConv2d(512, 2048, kernel_size=(1, 1), stride=(1, 1))
        (conv2): PartialConv2d(2048, 512, kernel_size=(1, 1), stride=(1, 1))
        (norm1): PixelwiseNorm()
        (norm2): PixelwiseNorm()
        (dropout): Dropout(p=0.0, inplace=False)
        (activation): GELU()
      )
    )
  )
  (decoder_trans): TransformerDecoder(
    (layers): ModuleList()
  )
  (to_token): Sequential(
    (0): PixelwiseNorm()
    (1): GELU()
    (2): Conv2d(512, 512, kernel_size=(1, 1), stride=(1, 1))
  )
)[Network T] Total number of parameters : 38.375 MRefinedGenerator(
  (encode): PartialConv2d(3, 32, kernel_size=(3, 3), stride=(1, 1), padding=(1, 1))
  (down): ModuleList(
    (0): Module(
      (downsample): DownSample(
        (conv): PartialConv2d(32, 32, kernel_size=(3, 3), stride=(2, 2), padding=(1, 1))
      )
      (block): ModuleList(
        (0): ResnetBlock(
…
